models/football_match_predictor_v1.pth (torch, 240304 bytes, 8 tensors)

agg_stats_fc.0.weight f4 [128, 266]
0	0xbcbb94b1	-0.02289805
1	0x3c91fc49	0.017820494
2	0xbce12c1f	-0.027486859
3	0x3d12d558	0.03584799
4	0xbcdd4770	-0.027011603
5	0x3d6636a3	0.05620445
6	0xbb29eb2a	-0.0025927522
7	0x3d4bb60a	0.049734153
8	0x38d0ff0d	9.96572e-05
9	0x3d1bb766	0.0380167
10	0xbc45e296	-0.012077948
11	0xbd06e156	-0.03292974
12	0x3d646c4a	0.055767335
13	0x3c70a127	0.014686859
14	0x3d259773	0.040427636
15	0x3d4e0c7e	0.050304882
16	0xbc5bc0a6	-0.01341263
17	0xbd071fab	-0.032989185
18	0x3cd8c207	0.026459707
19	0xbcd2c3f2	-0.0257282
20	0x3c3b38d4	0.011427123
21	0xbd43717c	-0.04771565
22	0xbcbd6e79	-0.023123967
23	0x3cfe001b	0.03100591
24	0x3be96fc1	0.007123918
25	0xbbc6570c	-0.0060528573
26	0xbcc67549	-0.024225848
27	0x3c18414d	0.009292913
28	0x3d22e35b	0.039767604
29	0x3d1ad52c	0.037800953
30	0x3b3f2692	0.0029167277
31	0xbd30952e	-0.04311102
32	0x3d3a7ebd	0.045531023
33	0x3abdefa2	0.0014490972
34	0xbc53d84a	-0.012929985
35	0x3c8f9191	0.017525466
36	0x3cef0203	0.029175764
37	0xbd455b1a	-0.048182584
38	0x3cbb96e3	0.022899097
39	0x3d6070ee	0.0547952
40	0xbd38b0c5	-0.045090456
41	0xbc485d8b	-0.012229334
42	0x3d2f5cb4	0.042813018
43	0x3d1e5358	0.0386537
44	0x3d545444	0.051838174
45	0x3cfa2a23	0.03053767
46	0xbd2579a4	-0.04039921
47	0xbc671ff5	-0.01410674
48	0x3d48f1d0	0.049058735
49	0x3c4f00d2	0.012634473
50	0x3d2034a0	0.039112687
51	0xbd27e275	-0.04098745
52	0xbce3473b	-0.027743926
53	0xbcc099e2	-0.023510877
54	0x3bc97daa	0.0061490135
55	0xbd312729	-0.043250237
56	0xbc925e63	-0.017867273
57	0xbd83f886	-0.064438865
58	0xbbc74b4b	-0.0060819737
59	0x3c2be08f	0.010490551
60	0xbd4b36d1	-0.049612824
61	0x3d2960e2	0.04135216
62	0xbd102584	-0.035192028
63	0xbcf8f866	-0.030391883
64	0x3beb4dc8	0.007180903
65	0x3d3babd4	0.045818165
66	0xbd0c6c1d	-0.034282792
67	0xbd47ca75	-0.048777062
68	0x3c5940a1	0.013260038
69	0x3d460302	0.048342712
70	0x3d1ae823	0.03781904
71	0x3d71729d	0.058947194
72	0xbc1609cc	-0.009157609
73	0x3d45e555	0.04831441
74	0xbb6926d1	-0.0035576115
75	0x3c68c280	0.014206529
76	0x3bec2887	0.0072069797
77	0xbcc9b26a	-0.024621207
78	0x3d07c1bf	0.033143755
79	0xbc692f0a	-0.014232406
80	0x3d1d386d	0.03838389
81	0xbcb502fc	-0.02209615
82	0xbd2c59e0	-0.0420779
83	0xbc9bd39b	-0.0190218
84	0x3d5c7ded	0.05383103
85	0xbd3db0ae	-0.046311073
86	0x3d3b2ad0	0.045695126
87	0xbd1967d8	-0.03745255
88	0xbcc36677	-0.02385257
89	0x3bdfd0af	0.006830297
90	0x3d25263e	0.040319674
91	0xbba1ac77	-0.0049338895
92	0xbc27ef07	-0.01024986
93	0x3d29251a	0.04129515
94	0xbc3bc800	-0.011461258
95	0xbd02fc60	-0.031978965
96	0x3c4b5e60	0.0124126375
97	0x39a2b35b	0.00031032678
98	0x3d0e7e8f	0.034788664
99	0xbd46274e	-0.048377328
100	0x3d01e58a	0.031713046
101	0xbd04382a	-0.032280125
102	0xbbddc7bb	-0.0067681945
103	0x3bcf27b6	0.0063218726
104	0x3c4aa212	0.012367742
105	0x3d2f06f6	0.042731248
106	0x3d170cfa	0.03687761
107	0x3d0d30d1	0.034470383
108	0xbc40d3f8	-0.011769287
109	0xbd54b775	-0.05193277
110	0xbcd41907	-0.02589084
111	0x3c941191	0.018074783
112	0x3bb4c59b	0.0055167205
113	0x3c78bb71	0.015181408
114	0xbcd00d69	-0.02539702
115	0x3c8fc698	0.017550752
116	0xbb8c2bf5	-0.004277701
117	0xbd2d5d64	-0.042325392
118	0x3a07ba73	0.00051776244
119	0xbd4f33ee	-0.050586633
120	0x398d420b	0.00026942822
121	0x3d2edf7b	0.042693596
122	0xbd520cbc	-0.051281676
123	0x3d50019f	0.050782796
124	0xbccf7b26	-0.025327276
125	0x3d22979c	0.039695367
126	0xbbc86f46	-0.0061167805
127	0xbd3e47fc	-0.04645537
128	0xbd26db44	-0.04073645
129	0x3c32625c	0.0108877085
130	0xbd1f810c	-0.038941428
131	0xbc0fa287	-0.008766777
132	0x3ce30b4c	0.027715348
133	0x3cf4710d	0.029839063
134	0xbb8804db	-0.0041509694
135	0xbca81686	-0.020518553
136	0x3cd7f43a	0.026361573
137	0x3d2061d7	0.039155807
138	0xbd0a9a36	-0.033838473
139	0x3c262235	0.0101399915
140	0xbca4b5f8	-0.0201063
141	0xbd24683d	-0.040138472
142	0x3d64c183	0.05584861
143	0x3d2673f3	0.04063792
144	0x3d0fc837	0.03510305
145	0xbccbe8b3	-0.024891233
146	0x3d160351	0.036624257
147	0xbd161269	-0.03663865
148	0xbaca8b31	-0.0015452859
149	0xbc913dbd	-0.017729634
150	0x3d1225e0	0.03568065
151	0xbcaeb8a3	-0.021328276
152	0xbd4368d2	-0.047707386
153	0x3d00325e	0.031298034
154	0xbc6b186c	-0.014349084
155	0x3d2fbca8	0.042904526
156	0xbbb8ab97	-0.0056356895
157	0x3c60efc1	0.013729037
158	0x3cf2951a	0.029612113
159	0xbcd5f4ea	-0.02611776
160	0xbcc78547	-0.024355544
161	0x3d3d4e67	0.04621735
162	0xbd14f654	-0.03636773
163	0x3ca70c7c	0.020391695
164	0xbc5478e6	-0.012968278
165	0x3d2795fc	0.04091452
166	0xbd28d4d4	-0.041218594
167	0x3c970a34	0.018437482
168	0xbd1d84f1	-0.03845686
169	0x3c5a6280	0.013329148
170	0xbd379512	-0.0448199
171	0xbc977222	-0.01848704
172	0xbb62adca	-0.003458845
173	0x3d31458c	0.043279216
174	0xbd28f851	-0.041252438
175	0x3d22da81	0.039759163
176	0x3c44a590	0.012002364
177	0x3b9314cb	0.0044885627
178	0x3d22cb66	0.039744757
179	0xbc40ccbb	-0.011767562
180	0xbd0a0a25	-0.03370108
181	0xbcab0373	-0.020875668
182	0x3c946c5e	0.01811808
183	0xbbda6c4f	-0.0066657434
184	0x3d5371d2	0.05162222
185	0x3d271237	0.040788855
186	0x3cff8d5a	0.031195331
187	0xbcc5e21e	-0.024155673
188	0xbceeb7be	-0.02914035
189	0x3d352e9d	0.044233907
190	0xbc89a9ad	-0.01680454
191	0x3d52b2e3	0.05144013
192	0xbc6df9f1	-0.014524923
193	0x3ba7753f	0.0051104124
194	0xbce6eb71	-0.02818844
195	0x3c848086	0.016174566
196	0xbcbced05	-0.023062238
197	0x3d0c539f	0.034259435
198	0x3cb8c78c	0.022556089
199	0x3cbc3af3	0.022977328
200	0x3d047dbf	0.032346483
201	0xbd5130d7	-0.051071968
202	0xbd34bef8	-0.044127434
203	0x3d34b887	0.04412129
204	0xbc960319	-0.018312024
205	0x3cfd2b26	0.030904364
206	0xbd1119ef	-0.035425123
207	0x3d4633e1	0.04838932
208	0x3d2effe3	0.0427245
209	0x3b2ce43d	0.0026381158
210	0x3d246a4b	0.04014043
211	0x3d182cb7	0.03715202
212	0xbd3cdab5	-0.046107013
213	0xbc8d8bea	-0.01727863
214	0x3cf31ab4	0.029675819
215	0x3d00017b	0.031251412
216	0x3d05bf61	0.032653216
217	0xbc6d3839	-0.014478737
218	0x3c075ec4	0.00826234
219	0xbcca99bf	-0.024731515
220	0x3d622838	0.055214137
221	0xbd633b38	-0.055476397
222	0xbc118c3f	-0.008883535
223	0xbcd4da45	-0.025982985
224	0xbd12f3a5	-0.03587689
225	0x3d4ea562	0.05045069
226	0x3d0f50e3	0.03498925
227	0xbcaa7730	-0.020808786
228	0x3cecc553	0.028902685
229	0xbbc85e4f	-0.006114758
230	0xbd3a7026	-0.04551711
231	0xbd131656	-0.035909973
232	0x3b216b24	0.0024630511
233	0xbd65ed85	-0.05613472
234	0x3cff9458	0.031198665
235	0x3d277375	0.040881593
236	0x3cccf0c8	0.025017157
237	0xbd511e54	-0.051054314
238	0x3cf10e9c	0.029425912
239	0xbcbaac28	-0.022787169
240	0x3ce33bfc	0.027738564
241	0xbc79f321	-0.01525572
242	0x3b1d14c2	0.0023968671
243	0xbbf5453e	-0.007485061
244	0x3d3f2847	0.04666927
245	0xbced30d4	-0.028953947
246	0x3cbfa6e5	0.023395011
247	0x3d044efc	0.032301888
248	0x3c21de3e	0.009879647
249	0x3d233ed2	0.039854832
250	0xbcc243ac	-0.02371391
251	0xbcc8c899	-0.024509715
252	0x3c9672c6	0.018365275
253	0xbd1d1484	-0.038349643
254	0x3d39e54d	0.045384694
255	0x3d33d1af	0.04390114

agg_stats_fc.0.bias f4 [128]
0	0x3d4b2958	0.049599975
1	0xbbff18fb	-0.0077849603
2	0xbcf911b5	-0.030403951
3	0x3d081055	0.0332187
4	0x3ca292ad	0.019845331
5	0x3d2f50fb	0.04280184
6	0xbd0aca77	-0.03388449
7	0xbabfdc10	-0.0014637727
8	0x3d1a0dd8	0.03761086
9	0x3aeaf049	0.0017924394
10	0xbc81e5a1	-0.015856566
11	0x3cb3083e	0.021854516
12	0xbbab23eb	-0.0052227876
13	0x3cfa9e36	0.030593019
14	0x3ceb5aa5	0.028729746
15	0x3ccc72c4	0.024957068
16	0x3cf4ca4e	0.029881623
17	0xbcc81426	-0.02442367
18	0x3c8129db	0.015767029
19	0xbc945af2	-0.018109772
20	0x3d2ae544	0.04172255
21	0x3d25898e	0.040414385
22	0x3d0dd44f	0.0346263
23	0xbbda0aba	-0.0066541107
24	0xbbdcb0f5	-0.006734962
25	0x3ca9324d	0.020653868
26	0x3d3c33bf	0.045947786
27	0xbc090443	-0.0083628325
28	0xbc67369b	-0.01411214
29	0xbd1d9203	-0.038469326
30	0xbcdca3ad	-0.026933515
31	0xbc92fc62	-0.017942611
32	0x3d74a023	0.05972303
33	0xbc2869bb	-0.010279114
34	0xbceb9979	-0.028759705
35	0xbd0de8d6	-0.034645878
36	0xbba18886	-0.004929605
37	0x3d4daf2e	0.050215892
38	0x3d3f8881	0.04676104
39	0xbd2cd665	-0.04219665
40	0xbcaae7b2	-0.020862434
41	0xbbb0e457	-0.005398314
42	0xbd2acf4d	-0.041701604
43	0x3c342155	0.010994275
44	0x3cb0a68a	0.021563787
45	0x3d73bfb7	0.059509005
46	0xbd27bce7	-0.040951636
47	0x3c24d01f	0.010059386
48	0xbcbf3bba	-0.02334391
49	0x3d3985b3	0.04529352
50	0xbc85c8a0	-0.016331017
51	0xbc8c7bc0	-0.017148852
52	0xbb3762d0	-0.002798248
53	0x3d5fe64f	0.054663
54	0x3ce16ec9	0.027518647
55	0x3a197329	0.0005853647
56	0xbc6edeff	-0.014579534
57	0x3c251108	0.010074861
58	0x3d772cc5	0.06034543
59	0xbcb8fa45	-0.022580275
60	0xbd304a4a	-0.043039598
61	0xbd07e03d	-0.033172835
62	0xbd43f565	-0.04784145
63	0xbc468f20	-0.012119085
64	0x3a164040	0.000573162
65	0x3cb4ea4d	0.02208438
66	0x3d5f53f5	0.054523427
67	0x3c18f4d9	0.00933572
68	0xbc85f44d	-0.016351843
69	0x3d10043d	0.035160292
70	0xbc867f25	-0.01641805
71	0x3cb5d40d	0.02219584
72	0xbce0cca5	-0.027441332
73	0x3cf83f24	0.030303545
74	0xbd326b6b	-0.043559473
75	0x3ce7d22b	0.028298458
76	0x3d069a8f	0.032862242
77	0x3cf6d9c5	0.030133137
78	0x3c51f768	0.012815334
79	0x39edff74	0.0004539449
80	0xbbded619	-0.006800425
81	0xbcd0b066	-0.025474738
82	0x3d10a7f7	0.035316434
83	0xbc9e0ef5	-0.019294241
84	0xbc41c8ea	-0.011827687
85	0xbc39bb6d	-0.01133619
86	0xbc8fa3fa	-0.017534245
87	0xbd1315ab	-0.035909336
88	0xbd17277c	-0.03690289
89	0xbd197d22	-0.03747285
90	0x3be0e705	0.006863477
91	0xbcea15d0	-0.028574854
92	0xbc989393	-0.018625056
93	0x3ca575f6	0.02019785
94	0x399cc4bd	0.0002990122
95	0x3d7927e8	0.060829073
96	0x3d4fa9c6	0.050699018
97	0x3d61ee58	0.055158943
98	0x3cee01d0	0.029053599
99	0xbd103442	-0.035206087
100	0xbca72feb	-0.020408591
101	0x3c6a2063	0.014289948
102	0x3d2c89ea	0.042123713
103	0xbceeff65	-0.029174516
104	0x3c361e3e	0.011115609
105	0x39db4b85	0.00041827201
106	0x3c9f9450	0.0194799
107	0xbc34680d	-0.011011136
108	0xbc09e151	-0.008415536
109	0xbcf98303	-0.030457979
110	0xbcac556e	-0.02103683
111	0xbd30dc02	-0.043178566
112	0xbce36c26	-0.02776153
113	0x3cad8b48	0.021184579
114	0x3cdd68b1	0.02702746
115	0xbd0db72c	-0.034598514
116	0xbd0285b9	-0.03186581
117	0x3d8b9030	0.06814611
118	0xbace7afa	-0.0015753203
119	0x3bf2ce39	0.0074098376
120	0x3c7186cc	0.014741611
121	0x3c18ba77	0.0093218
122	0x3d718791	0.058967177
123	0x3d239d98	0.039945215
124	0x3cbb842c	0.022890173
125	0x3ccf400b	0.025299093
126	0xbcbeac14	-0.023275413
127	0xbcd13978	-0.025540099

agg_stats_fc.3.weight f4 [128, 128]
0	0x3cfb4cb3	0.030676221
1	0xbc125018	-0.008930229
2	0x3cea4723	0.028598374
3	0x3d345ffd	0.044036854
4	0xbc70c7a3	-0.014696035
5	0xbd2310cf	-0.03981095
6	0xbd3af2f3	-0.04564185
7	0x3bd89a0b	0.00661016
8	0x3d3c596f	0.045983728
9	0x3d6a693b	0.05722926
10	0x3d2c7c93	0.04211099
11	0x3ccde639	0.025134193
12	0xbd4a400f	-0.049377497
13	0x3d5c7c6b	0.05382959
14	0x3d57078d	0.052497435
15	0x3d20c066	0.039245985
16	0x3da90c09	0.08254249
17	0x3d58422a	0.052797474
18	0xbd73993c	-0.059472308
19	0x3d980c77	0.074242525
20	0xbd54fbe3	-0.05199803
21	0xbd84f1db	-0.06491443
22	0xbc89504c	-0.016761921
23	0xbbc0402f	-0.0058670263
24	0xbd132217	-0.035921182
25	0x3b6c582f	0.0036063304
26	0xbcc19a6a	-0.0236332
27	0x3c26a725	0.010171686
28	0xbcd77337	-0.026300056
29	0x3d56c5a1	0.052434567
30	0xbc1ed26a	-0.009693721
31	0x3d38c843	0.04511286
32	0xbc995a1e	-0.018719729
33	0x3c51d4c9	0.01280708
34	0xbca0a0a5	-0.019607851
35	0x3b8e90d8	0.004350763
36	0x3d852902	0.06501962
37	0xbd710251	-0.0588401
38	0x3c5b2c08	0.013377197
39	0xbb7180cb	-0.0036850448
40	0xbcf5db44	-0.03001178
41	0x3c4acb27	0.012377537
42	0xbcb32801	-0.021869661
43	0xbcc9bd8c	-0.024626516
44	0x3c227dbf	0.0099176755
45	0xbcfa3019	-0.030540513
46	0xbcdb1dba	-0.026747573
47	0x3da69d35	0.081354536
48	0x3d319ba7	0.043361332
49	0x3d3e766a	0.046499647
50	0xbc5ac37e	-0.013352273
51	0xbd9b9f4a	-0.07598741
52	0xbb46fa3a	-0.003036155
53	0xbbaabc29	-0.0052104187
54	0xbcacaa37	-0.021077259
55	0x3d2a5adb	0.041590553
56	0x3d3fcfa3	0.046828877
57	0xbd886743	-0.066603206
58	0x3d1838d6	0.037163578
59	0x3d19d07b	0.037552338
60	0xbd1c2633	-0.038122367
61	0x3d3fa45a	0.046787597
62	0x3d86c65f	0.06580805
63	0x3d531e2d	0.05154245
64	0xbd292562	-0.041295417
65	0xbd16a08d	-0.036774207
66	0xbc836720	-0.016040385
67	0x3db382f6	0.08765213
68	0xbd697ce5	-0.057003874
69	0x3d383aed	0.04497807
70	0x3baeed80	0.005338371
71	0xbd53b078	-0.051681966
72	0x3cec287e	0.028827902
73	0x3d752e6c	0.059858724
74	0xbd30de6e	-0.043180875
75	0xbc94e336	-0.018174749
76	0x3c2f4355	0.010697206
77	0x3d00063c	0.031255946
78	0xbd2b6680	-0.0418458
79	0xbc615007	-0.01375199
80	0xbd6117d0	-0.05495435
81	0x3d4bffca	0.049804486
82	0x3d019ac6	0.031641744
83	0x3d42f7d6	0.047599636
84	0x3d6859aa	0.056726135
85	0x3cc258c1	0.023723962
86	0xbd8a81c9	-0.06763036
87	0x3cfae094	0.030624665
88	0xbcc0bec9	-0.023528473
89	0x3cb15fc5	0.021652112
90	0x3c94618f	0.018112926
91	0xbc4ad848	-0.012380667
92	0x3c6b9e78	0.014381044
93	0xbb80f864	-0.0039358605
94	0x3b55a37f	0.0032598672
95	0xbc7925c6	-0.01520676
96	0x3d33e0ae	0.043915443
97	0x3cc90b7e	0.024541613
98	0xbc2521ed	-0.010078889
99	0x3ac4d5a0	0.0015017278
100	0x3d4c38cc	0.049858853
101	0x3da603d2	0.081061974
102	0xbd0cc4a8	-0.034367234
103	0xbc47c972	-0.012194024
104	0x3d1d8260	0.038454413
105	0xbd8851d5	-0.06656233
106	0xbce0be45	-0.027434478
107	0x3d4c57da	0.04988847
108	0x3d604f7b	0.0547633
109	0x3d477f40	0.04870534
110	0xbc4d3514	-0.012524862
111	0x3c8ae348	0.01695408
112	0xbd2156de	-0.039389484
113	0x3c3ddaae	0.011587782
114	0x3d00e70e	0.03147035
115	0xbce063d4	-0.027391352
116	0x3c9d45b4	0.019198276
117	0x3d18b3ca	0.037280835
118	0xbc4a9078	-0.012363546
119	0x3c8a35cf	0.016871361
120	0x3cedd386	0.029031526
121	0x3da9fbc2	0.08299972
122	0xbb0f91cc	-0.002190697
123	0x3b541183	0.003235907
124	0xbd350abe	-0.044199698
125	0x3b21f9a0	0.0024715438
126	0xbc4e3217	-0.012585185
127	0x3d107b85	0.035274047
128	0xbc4c27ff	-0.012460708
129	0x3c59073d	0.013246355
130	0xbcee7f12	-0.029113326
131	0x3d3e056f	0.0463919
132	0xbbcfe449	-0.0063443524
133	0x3d3ff712	0.046866484
134	0xbc8fa766	-0.017535876
135	0x3d33da9d	0.043909658
136	0x3cb382fa	0.02191304
137	0x3ca9116e	0.020638194
138	0x3d4519e7	0.048120406
139	0xbcd20367	-0.025636388
140	0xbbe82d79	-0.007085499
141	0xbd0f4c5f	-0.034984943
142	0xbc395565	-0.011311864
143	0xbbe6bc14	-0.0070414636
144	0xbc121d66	-0.008918142
145	0x3c363ce3	0.011122915
146	0x3d254951	0.040353123
147	0x3cc27cf5	0.023741225
148	0xbd4a5a1d	-0.049402345
149	0xbcfd32fa	-0.030908097
150	0x3c15d0cd	0.00914402
151	0x3d3d90c1	0.046280626
152	0xbce608f9	-0.02808045
153	0xbc867ebb	-0.016417852
154	0x3d422b40	0.047404528
155	0xbd1a7923	-0.03771318
156	0xbcb81a00	-0.022473335
157	0xbd07b526	-0.03313174
158	0xbc7329ba	-0.014841491
159	0xbd0faea8	-0.035078675
160	0xbd05079c	-0.03247796
161	0x3c94a31d	0.018144185
162	0xbcd427ad	-0.025897825
163	0xbc033683	-0.008008602
164	0x3d70050b	0.05859856
165	0x3c406440	0.011742651
166	0xbd041598	-0.032247156
167	0x3c70c554	0.014695484
168	0xbcf5764e	-0.029963639
169	0xbc46442a	-0.0121012125
170	0xbcd05bbe	-0.025434371
171	0xbcf5e4e9	-0.03001638
172	0xbc248640	-0.010041773
173	0xbc98ac4d	-0.018636847
174	0x3d1f1830	0.038841426
175	0x3c58764a	0.013211796
176	0xbca94cbe	-0.020666476
177	0x3d711201	0.05885506
178	0xbcd728a9	-0.026264505
179	0xbccec1c7	-0.025238885
180	0x3d5ce03a	0.053924777
181	0x3bdcfddf	0.006744131
182	0xbcf52e93	-0.029929435
183	0xbcfced06	-0.03087474
184	0xbd3f74fa	-0.046742417
185	0x3d4881cb	0.048951905
186	0x3d1ea0ef	0.038727697
187	0xbd45f4f6	-0.048329316
188	0x3d18eecb	0.037337106
189	0xbcbac00f	-0.022796659
190	0xbcc67719	-0.024226712
191	0x3cc73548	0.024317399
192	0x3d208ce7	0.039196875
193	0xbbd41658	-0.00647239
194	0xbb9633cd	-0.004583812
195	0x3d820c0e	0.063499555
196	0xbc90e3b5	-0.017686704
197	0xbd1659c7	-0.036706712
198	0x3d4eb6a2	0.05046714
199	0xbc7f0626	-0.015565431
200	0xbcb64ccd	-0.022253418
201	0x3cec501b	0.028846791
202	0x3c44ad28	0.012004174
203	0x3bc4e8bb	0.006009189
204	0x3d60f60a	0.05492214
205	0xbc79f5d2	-0.015256362
206	0x3c88cc70	0.016699046
207	0x3d7f190a	0.06227974
208	0xbb6a77cd	-0.0035776973
209	0x3d3fe5cf	0.046850022
210	0xbbb9aca5	-0.005666333
211	0xbd5c1b23	-0.053736817
212	0xbd44a40a	-0.048008002
213	0x3b8368c3	0.0040102913
214	0xbd12e371	-0.035861436
215	0x3c428f92	0.01187505
216	0x3cd3f93c	0.02587568
217	0x3d00b7d0	0.031425297
218	0xb9db83ae	-0.00041869044
219	0xbc5ac0b5	-0.013351609
220	0xbc99c221	-0.018769326
221	0x3ac5793a	0.0015066036
222	0x3c7dc9eb	0.0154900355
223	0xbd04a32d	-0.03238218
224	0xbc1f5748	-0.009725399
225	0xbd13c28d	-0.03607421
226	0x3d4d054e	0.050053887
227	0x3cb27d54	0.021788277
228	0xbd264cee	-0.04060071
229	0x3cb0a153	0.0215613
230	0xbd1bc8e7	-0.038033392
231	0x3d45ced3	0.048292946
232	0x3cb26e1d	0.021781022
233	0x3d21f6f8	0.03954217
234	0x3d272748	0.040808946
235	0x3b72ac77	0.0037029067
236	0x3d4c411d	0.049866784
237	0x3ce46202	0.027878765
238	0x3d3019d0	0.042993367
239	0xbd15f0d2	-0.036606617
240	0xbd18dfb3	-0.03732271
241	0xbd092ff9	-0.033493016
242	0xbd065404	-0.032794967
243	0xbd5670ed	-0.05235379
244	0xbcdb3660	-0.026759326
245	0xbd4df5b8	-0.050283164
246	0xbd251969	-0.040307436
247	0x3d5c68bd	0.053810824
248	0x3d030861	0.031990413
249	0x3d347011	0.044052187
250	0xbd39f435	-0.04539891
251	0x3d4b4032	0.04962177
252	0xbd02ecf0	-0.031964242
253	0x3b883dca	0.0041577565
254	0x3ca652d1	0.020303162
255	0xbd13e39b	-0.036105733

agg_stats_fc.3.bias f4 [128]
0	0xbd1bb55c	-0.038014755
1	0xbcca36aa	-0.024684269
2	0xbc8eeb08	-0.017446056
3	0x3d608140	0.054810762
4	0x3d946ad5	0.07246939
5	0x3d8f2fc3	0.06991532
6	0x3d838dc2	0.064235225
7	0x3d5cf7a3	0.053947102
8	0x3d34b700	0.044119835
9	0xbc9ea3d9	-0.019365238
10	0xbd81ccaa	-0.06337865
11	0xbd5cb1ea	-0.05388061
12	0xbc46f8cb	-0.012144278
13	0x3d00574b	0.03133325
14	0x3d1bf3f9	0.038074467
15	0x3d33894c	0.04383211
16	0x3c6fc5f5	0.014634599
17	0x3d3019c6	0.04299333
18	0xbce13299	-0.027489947
19	0xbcf0e574	-0.029406287
20	0x3d8ab83e	0.06773423
21	0x3afd9a2f	0.0019348318
22	0xbd21a50c	-0.03946404
23	0x3d843df1	0.06457127
24	0x3cf777ba	0.030208457
25	0x3d588039	0.052856658
26	0xbc3e21ca	-0.011604736
27	0x3d5cb3e7	0.053882506
28	0xbd2bf964	-0.041985884
29	0x3d11b11d	0.0355693
30	0xbc9f00ed	-0.019409621
31	0x3d4a03d8	0.049320072
32	0x3dc9125d	0.09817956
33	0x3d1f4960	0.038888335
34	0xbc7ebcb2	-0.015547918
35	0x3bcdad0b	0.006276732
36	0xbcaf43f5	-0.02139471
37	0xbd884339	-0.06653447
38	0xbd6006b5	-0.054693896
39	0xbd4a0142	-0.049317606
40	0x3ccb23e5	0.02479739
41	0xbd922cdc	-0.071374625
42	0xbcba20dd	-0.022720749
43	0x3d8d475c	0.06898376
44	0x3da918d2	0.08256687
45	0x3d383271	0.04496998
46	0x3d1f85b7	0.03894588
47	0x3c4cb31e	0.012493877
48	0xbbb679c7	-0.005568716
49	0xbb42ac9a	-0.002970493
50	0xbd3b4a8e	-0.045725398
51	0x3d48968a	0.04897169
52	0x3d88c9a1	0.06679083
53	0x3cf748ca	0.030186076
54	0x3cfcae34	0.030844785
55	0x3d9eaa8a	0.077473715
56	0xbb9c4f6c	-0.00477021
57	0xbcf7f56a	-0.03026839
58	0x3c656045	0.014000003
59	0x3d26baaf	0.04070538
60	0x3d9d58de	0.07682966
61	0x3da9d88b	0.082932554
62	0xbd420d86	-0.04737618
63	0x3d5981ec	0.05310242
64	0xbd6fffec	-0.058593675
65	0xbd64210d	-0.055695582
66	0xbd123f34	-0.035704806
67	0x3db5c898	0.08876151
68	0x3da374df	0.07981276
69	0x3b340df7	0.0027474144
70	0xbd43e91d	-0.047829736
71	0x3da276bb	0.07932802
72	0xbd588fd9	-0.05287156
73	0xbd536833	-0.051613044
74	0xbcafbf46	-0.021453511
75	0x3d7d90aa	0.06190554
76	0x3c0196c6	0.007909482
77	0x3cdbcf65	0.026832292
78	0x3d4da287	0.050203826
79	0x3d80afdf	0.06283545
80	0xbd5b9333	-0.053607177
81	0x3d62a298	0.055330843
82	0xbb34fa9d	-0.0027615197
83	0xbc90455a	-0.017611194
84	0x3cf98970	0.030461043
85	0xbc67c90f	-0.014147057
86	0xbd6a243c	-0.057163462
87	0x3d4bce02	0.04975701
88	0xbcc3159e	-0.023814019
89	0xbcede6cd	-0.029040718
90	0xbd668325	-0.056277413
91	0x3d1dcb14	0.03852375
92	0x3c7f069e	0.0155655425
93	0xbcf0757f	-0.029352902
94	0x3c52712b	0.012844364
95	0x3d5c0021	0.05371106
96	0xbcd6d4cb	-0.026224514
97	0x3cb26d85	0.021780739
98	0xbd59571c	-0.05306159
99	0x3b4a5b6b	0.0030877243
100	0x3c046ce3	0.008082601
101	0x3c191b39	0.009344869
102	0x3ca7b064	0.020469852
103	0xbd1dbd86	-0.03851082
104	0x3d863f99	0.06555099
105	0x3cc04bb2	0.023473594
106	0x3cff91fe	0.031197544
107	0xbd36eed7	-0.04466137
108	0xbc31e555	-0.0108579
109	0x3d372c64	0.04472007
110	0x3da0c0d8	0.07849282
111	0x3cb9671c	0.022632174
112	0xbd549c17	-0.05190667
113	0x3c66e17d	0.0140918465
114	0x3d26d705	0.040732402
115	0xbb2dfec4	-0.0026549557
116	0x3c592f9e	0.013255982
117	0xbd5cb33c	-0.05388187
118	0xbd0f1d01	-0.03493977
119	0x3d5a6c86	0.053326152
120	0x3d77d87d	0.060509194
121	0x3dafeded	0.085903026
122	0xbd1df558	-0.038564056
123	0xbd7d7a38	-0.061884135
124	0x3d96d4ad	0.073647834
125	0x3ce48dfe	0.027899738
126	0x3d116774	0.03549905
127	0x3d25efa3	0.04051174

fc_combined.0.weight f4 [64, 128]
0	0xbd7bf538	-0.061513156
1	0xbaa14bb2	-0.0012305884
2	0xbd947464	-0.07248762
3	0x3d792d0c	0.060833976
4	0x3d6bb29a	0.057543375
5	0x3cdc462c	0.02688893
6	0x3d46f3d1	0.048572365
7	0xbcfa824d	-0.03057971
8	0x3cf312fb	0.029672137
9	0x3c0c8946	0.00857765
10	0x3c124b45	0.0089290785
11	0x3c7d29f5	0.015451898
12	0x3b2912bc	0.002579852
13	0xbc1bae5d	-0.009502021
14	0xbcc6046d	-0.024172032
15	0x3d2cf1e1	0.04222286
16	0xbc345a64	-0.011007879
17	0x3d12c5cb	0.03583316
18	0x3c2c91fe	0.010532854
19	0xbc90b153	-0.01766268
20	0xbd77cd24	-0.06049837
21	0x3a3aad61	0.00071211724
22	0xbd0da91c	-0.034585103
23	0xbceed7f7	-0.029155714
24	0xbc91de7d	-0.017806286
25	0x3d173220	0.036913037
26	0xbd6450ff	-0.055741306
27	0xbcfd7e9c	-0.030944161
28	0x3ca538b9	0.020168649
29	0xbc0c28c0	-0.008554637
30	0x3d4800a6	0.048828743
31	0xbcbf338f	-0.023340015
32	0x3d2df01c	0.042465314
33	0xbd3116c6	-0.04323461
34	0xbcea60e9	-0.028610663
35	0x3cfcac6e	0.03084394
36	0xbbc7295f	-0.00607793
37	0xbca84006	-0.020538341
38	0xbc66d601	-0.014089108
39	0x3ce7abbf	0.028280137
40	0x3cf5cc7a	0.030004729
41	0x3dafc866	0.08583145
42	0x3cd8b56e	0.0264537
43	0xbd1ba035	-0.037994582
44	0xbc879922	-0.016552512
45	0x3b54cda2	0.00324712
46	0xbd1ed6f2	-0.038779207
47	0x3cf4d19c	0.029885106
48	0xbd645032	-0.055740543
49	0x3c1bef8f	0.009517564
50	0x3d689bbe	0.056789152
51	0xbc8a5736	-0.016887289
52	0xbce8e131	-0.028427692
53	0xbd7fc668	-0.062445074
54	0x3d00b347	0.031420972
55	0x3ca1d3a7	0.019754244
56	0xbd6d76a6	-0.05797448
57	0xbd418fd9	-0.047256324
58	0x3d8d7682	0.06907369
59	0x3d05b2e6	0.032641314
60	0xbcb58208	-0.02215673
61	0xbd895f3d	-0.067076184
62	0x3d337a98	0.043818086
63	0x3d6835a9	0.0566918
64	0x3d947c3a	0.07250257
65	0xbd3e41fb	-0.046449643
66	0x3caa3d32	0.020781133
67	0x3cd95302	0.026528839
68	0xbccb3142	-0.024803761
69	0x3d7f75b7	0.06236812
70	0xbc675590	-0.014119521
71	0xbcd65b20	-0.026166499
72	0x3d53a431	0.051670257
73	0xbd0b3ff8	-0.033996552
74	0xbcfe93e5	-0.031076381
75	0xbd64fb39	-0.055903647
76	0xbce61284	-0.028085
77	0xbd2093fa	-0.03920362
78	0x3c1dfcd1	0.009642796
79	0x3bd058b0	0.0063582286
80	0xbc6c077b	-0.01440608
81	0xbcd2a8d6	-0.025715273
82	0x3d52e2cc	0.05148582
83	0xbd5f59b8	-0.05452892
84	0x388997d8	6.560952e-05
85	0x3d041425	0.032245774
86	0xbc6c18f5	-0.014410247
87	0xbd62202f	-0.055206474
88	0xbca46082	-0.02006555
89	0x3c671e79	0.014106386
90	0x3c83acea	0.016073663
91	0x3cbf79c1	0.023373486
92	0xbc2172e5	-0.009854053
93	0xbc3ccac3	-0.011522952
94	0xbbdf898a	-0.006821816
95	0xbd228932	-0.03968162
96	0x3d8e452e	0.06946789
97	0xbd193127	-0.03740039
98	0x3c134112	0.008987682
99	0xbca02bfd	-0.019552225
100	0xbd233884	-0.03984882
101	0xbd0ed79d	-0.034873594
102	0x3d547efc	0.051878914
103	0x3d51c256	0.051210724
104	0xbd3f9483	-0.04677249
105	0xbbbedd78	-0.005824741
106	0xbd5ba57c	-0.053624615
107	0x3d7e1cf8	0.062039346
108	0xbd20d52c	-0.039265797
109	0xbd18649a	-0.037205316
110	0x3c8712af	0.016488401
111	0x3cde0b73	0.027105069
112	0x3c1f7016	0.009731313
113	0xbcfe072d	-0.031009281
114	0xbd29a6c6	-0.041418813
115	0x3c4e91f2	0.012608038
116	0xbd10f135	-0.035386283
117	0xbb9e887d	-0.004838048
118	0xbd79048f	-0.060795363
119	0x3ccb47de	0.024814542
120	0xbd5dc84a	-0.05414609
121	0x3d9e38e8	0.07725698
122	0x3d5bbdb1	0.0536477
123	0x3d4f71dc	0.050645694
124	0x3d794eca	0.060866155
125	0xbd1ddce1	-0.038540725
126	0x3d396db7	0.045270648
127	0xbd43435e	-0.04767167
128	0x3d031d00	0.03201008
129	0xbba9187f	-0.005160391
130	0x3c86fab9	0.016476976
131	0xbc805cca	-0.015669245
132	0x3bf4b293	0.007467577
133	0x3da34ed2	0.07974018
134	0x3ce1890b	0.027531167
135	0x3c521e9e	0.0128246825
136	0xbd2ba4ee	-0.041905336
137	0x3d5464cd	0.051853944
138	0x3cda260b	0.026629468
139	0xbc0f259f	-0.008736997
140	0xbc8833d8	-0.016626284
141	0x3d4723be	0.04861807
142	0xbc132e15	-0.008983155
143	0x3d532d35	0.051556785
144	0xbc5b3710	-0.013379827
145	0xbcbafcf6	-0.0228257
146	0xbd6183cd	-0.055057336
147	0xbc7454fc	-0.01491284
148	0x3ca3d988	0.020001188
149	0xba8e72c1	-0.001086794
150	0xbbecf6b5	-0.007231558
151	0x3ca2a529	0.019854145
152	0xbd4566ee	-0.048193865
153	0xbc91a7f5	-0.017780283
154	0xbce90718	-0.028445765
155	0xbb0cb9b6	-0.0021472997
156	0x3ccf4b15	0.025304357
157	0xbc68d96d	-0.014211995
158	0xbc83b154	-0.016075768
159	0x3d192b7c	0.037394986
160	0xb9d5d88d	-0.0004078787
161	0xbd0d845a	-0.03455005
162	0xbc988209	-0.018616693
163	0xbd62563e	-0.05525803
164	0xbc3d1606	-0.011540895
165	0x3d8cdb54	0.06877771
166	0xbd18d71a	-0.03731451
167	0xbd01a504	-0.03165151
168	0x3cf06ece	0.02934971
169	0x3d9e4543	0.077280544
170	0xbc22b81f	-0.009931593
171	0x3d1864b9	0.03720543
172	0xbb930d58	-0.0044876747
173	0x3d86af9b	0.06576463
174	0xbc8a327c	-0.016869776
175	0x3ca6360b	0.020289442
176	0xbcef9eb5	-0.029250482
177	0x3b3695ba	0.002786024
178	0x3d4b9389	0.049701247
179	0x3cac3754	0.021022476
180	0xbd80905a	-0.06277533
181	0x3d2612ad	0.040545154
182	0xbd10a945	-0.035317678
183	0xbcfdf2c7	-0.030999554
184	0xbb62511f	-0.0034533215
185	0x3c892e56	0.016745728
186	0x3d2219e4	0.039575472
187	0xbc36fa71	-0.011168108
188	0xbc96afc1	-0.018394353
189	0x3d2d2048	0.042267114
190	0x3d61ae33	0.05509777
191	0x3d1fce20	0.039014935
192	0xbbedd78e	-0.007258362
193	0xbd15a525	-0.036534447
194	0xbd30b31d	-0.043139566
195	0x3d662e05	0.05619623
196	0xbd7a5f59	-0.061126087
197	0x3d7856ce	0.06062966
198	0x3cfd3c10	0.03091243
199	0xbbda461b	-0.0066611893
200	0xbb08c82c	-0.0020871265
201	0xbc96f353	-0.018426573
202	0x3c6743a1	0.014115245
203	0x3cc93c5a	0.02456491
204	0x3d6e3b48	0.058162004
205	0x3d637497	0.05553111
206	0x3ccb9271	0.024850102
207	0xbd1adf60	-0.037810683
208	0xbd097ace	-0.03356438
209	0x3d76e821	0.06027997
210	0x3ccceb71	0.025014611
211	0x3cd71ade	0.026257928
212	0x3c9c2471	0.019060345
213	0x3d396ad3	0.04526789
214	0xbc4566af	-0.012048407
215	0xbd3a51a9	-0.045488033
216	0xbd007ad2	-0.03136713
217	0xbcda8da9	-0.026678877
218	0xbcaa44b3	-0.020784711
219	0xbd04a770	-0.032386243
220	0x3c1732ff	0.009228467
221	0xbd5116ad	-0.051047016
222	0xbd6cae7b	-0.057783585
223	0xbd149739	-0.03627703
224	0x3d29e9c1	0.04148269
225	0x3d1e07ac	0.038581535
226	0xbc103ba6	-0.008803284
227	0xba592db4	-0.00082847034
228	0xbd08abf3	-0.03336711
229	0x3d72369e	0.05913412
230	0x3a241a39	0.0006260011
231	0xbd5688a3	-0.0523764
232	0xbbf0f962	-0.0073539475
233	0xbd2e3a67	-0.042536166
234	0xb90da85d	-0.00013509528
235	0x3d1fa82c	0.03897874
236	0xbb31d094	-0.002713238
237	0x3c3d1a14	0.011541862
238	0x3c6255cf	0.013814404
239	0x3cbcebdc	0.023061685
240	0xbc314854	-0.010820467
241	0x3d3c0c6a	0.045910276
242	0xbc9302ea	-0.017945725
243	0x3b33cc6f	0.0027435084
244	0xbce10ccb	-0.02747192
245	0x3d1a6121	0.037690286
246	0xbce45fa8	-0.027877644
247	0xbd23ab11	-0.039958064
248	0xba9dbec4	-0.0012035002
249	0xbc94a097	-0.018142981
250	0x3d305cdf	0.04305732
251	0x3cda7670	0.026667804
252	0xbd28056a	-0.04102079
253	0x3cb916cd	0.02259388
254	0x3a9c4cdd	0.0011924763
255	0x3bccaa14	0.006245861

fc_combined.0.bias f4 [64]
0	0x3c13ab1a	0.009012962
1	0x3d089908	0.033349067
2	0x3ce10660	0.02746886
3	0x3d1bf3e0	0.038074374
4	0xbd47f3d5	-0.04881652
5	0xbcfb161c	-0.030650191
6	0x3d937fb5	0.072020926
7	0xbcc34bfc	-0.023839943
8	0xbb98122b	-0.0046408377
9	0x3babb0ad	0.0052395673
10	0xbd133d27	-0.03594699
11	0x3c65fb49	0.014036962
12	0xbd3d6311	-0.046237055
13	0xbc88d935	-0.016705135
14	0x3c13c487	0.009019024
15	0xbd854873	-0.06507959
16	0x3c6ece76	0.014575591
17	0xbd1d3595	-0.038381178
18	0xbd04fee6	-0.032469653
19	0x3c316f80	0.010829806
20	0xbd0bcbde	-0.03412997
21	0x3bd63516	0.00653709
22	0x3d57efb4	0.052718833
23	0x3d99b38c	0.07504949
24	0x3d1ddefd	0.038542736
25	0xbcf9ab22	-0.03047711
26	0xbd9f010d	-0.07763872
27	0xbd30c4c3	-0.043156397
28	0x3d51d587	0.051229026
29	0x3d035c63	0.03207053
30	0x3ca0acd4	0.01961366
31	0x3d121a1e	0.03566944
32	0xbd1772c8	-0.0369747
33	0x3d17e489	0.037083182
34	0xbd739644	-0.059469476
35	0x3db2818e	0.08716117
36	0xbceb1bda	-0.028699804
37	0x3d62a6f9	0.05533502
38	0x3d55dc05	0.05221178
39	0x3d68a420	0.056797147
40	0x3d60d72e	0.05489271
41	0xbd62fa59	-0.05541453
42	0x3d8aa531	0.06769789
43	0xbd129b5d	-0.035792697
44	0x3da2bbb0	0.07945955
45	0xbcfb5a95	-0.030682841
46	0xbc9aa236	-0.018876176
47	0x3d762a8f	0.06009918
48	0xbd409cee	-0.04702466
49	0xbd4d678a	-0.05014757
50	0x3b71fb7a	0.0036923573
51	0xbd10798d	-0.03527217
52	0x3da979f4	0.08275214
53	0x3d7ff6ee	0.06249135
54	0xbd8a76b8	-0.06760925
55	0x3d6892e1	0.0567807
56	0xbd1ee417	-0.038791742
57	0x3cb9a1bd	0.02266013
58	0x3d7e6d11	0.062115733
59	0x3d450542	0.048100717
60	0x3d93f5fa	0.07224651
61	0x3d6d420f	0.057924327
62	0xbc42b6e8	-0.011884429
63	0x3dc962c3	0.098332904

fc_combined.2.weight f4 [3, 64]
0	0xbac8546f	-0.0015283952
1	0xbca4c83b	-0.020115009
2	0x3dc70985	0.097186126
3	0xbdbd664a	-0.09248026
4	0x3d8b300f	0.06796276
5	0xbdaf008a	-0.08545025
6	0x3dd2ff9c	0.1030266
7	0x3cbefafd	0.02331304
8	0xbd3856fa	-0.045004822
9	0x3d50a5e2	0.05093945
10	0xbd22485a	-0.03961978
11	0xbd97de01	-0.07415391
12	0xbd935503	-0.07193949
13	0x3d899149	0.06717164
14	0x3c543412	0.012951868
15	0xbd5826b4	-0.052771285
16	0xbd565ed7	-0.05233654
17	0x3d33aa38	0.043863505
18	0xbd067aad	-0.032831836
19	0x3dd97e6a	0.10619815
20	0xbda7d695	-0.08195225
21	0xbd345475	-0.044025857
22	0xbc64da79	-0.013968104
23	0x3d488a2d	0.0489599
24	0xbd6073a9	-0.054797802
25	0x3d2f6c77	0.04282805
26	0x3d8e9027	0.06961089
27	0x3b539ab8	0.0032288264
28	0x3d4d37d8	0.050102085
29	0xbd8b1817	-0.06791704
30	0x3cd5643c	0.026048772
31	0xbdc4e04e	-0.09613095
32	0x3d5c7345	0.053820867
33	0xbd186033	-0.037201118
34	0xbc352d5e	-0.01105818
35	0xbd2cae2a	-0.042158283
36	0x3cdc77da	0.026912618
37	0x3b36523c	0.0027820012
38	0x3d509876	0.050926648
39	0xbc73d01c	-0.01488116
40	0x3d6453fe	0.055744164
41	0xbb6f0a4f	-0.003647465
42	0xbda49877	-0.08036893
43	0xbcb0a3e8	-0.021562532
44	0x3dd4fd51	0.10399879
45	0x3d405e41	0.046964888
46	0xbdfacae9	-0.12245733
47	0x3d57e20d	0.052705813
48	0x3d677e26	0.05651679
49	0xbd8f7630	-0.07004964
50	0xbd711370	-0.058856428
51	0xbd897951	-0.067125924
52	0xbd1de8f4	-0.03855224
53	0x3dd8b2bd	0.105809666
54	0xbdcce894	-0.10005298
55	0x3d161734	0.036643222
56	0xbca745d9	-0.020419048
57	0xbdbd182c	-0.09233126
58	0xbd98e83c	-0.0746617
59	0x3d6ee539	0.058324073
60	0x3d8f7b76	0.0700597
61	0xbd32c1bb	-0.043641787
62	0x3d85e29c	0.06537363
63	0xbd6e599b	-0.058190923
64	0x3dafd729	0.085859604
65	0x3cd06c2c	0.025442205
66	0x3ddd3788	0.10801607
67	0x3dd304bb	0.10303637
68	0x3dc55dd7	0.09637039
69	0xbd6486b0	-0.05579251
70	0x3c92813a	0.017883886
71	0x3d6634c9	0.056202684
72	0x3d8b9183	0.068148635
73	0x3d500eaa	0.050795235
74	0xbce78469	-0.02826138
75	0x3c641012	0.013919847
76	0xbdd4b02f	-0.10385167
77	0x3d59c820	0.05316937
78	0xbd8fe033	-0.070251845
79	0x3ba03990	0.0048896745
80	0xbde27037	-0.110565595
81	0x3d58c7df	0.052924987
82	0x3db4fa0c	0.08836755
83	0x3cc38b15	0.02387003
84	0xbcd56997	-0.026051326
85	0xbdb82330	-0.089910865
86	0x3e0a465f	0.13503407
87	0xbb5d5e1a	-0.0033778013
88	0x3dfbf62e	0.123028144
89	0x3d6661c9	0.0562456
90	0xbdc4b978	-0.09605688
91	0x3d23bb64	0.03997363
92	0x3bcb1316	0.0061973436
93	0x3dc7b073	0.09750452
94	0xbc77b7b2	-0.01511948
95	0xbd5d0f10	-0.053969443
96	0x3b4494f1	0.0029996003
97	0xbc50f45f	-0.012753575
98	0x3e0355b0	0.12825656
99	0x3d808cb4	0.06276837
100	0xbb20ac74	-0.0024516853
101	0xbdfdfcae	-0.124017105
102	0xbd8b19bc	-0.06792018
103	0x3d31ba57	0.0433906
104	0x3a912d52	0.0011076129
105	0x3d9f58a0	0.07780576
106	0x3d332c59	0.043743465
107	0x3dcf3dff	0.10119247
108	0x3dbe80d8	0.09301919
109	0xbd9ea03c	-0.07745406
110	0xbc71c6ef	-0.014756902
111	0xbdde7397	-0.10861891
112	0x3dd69bb9	0.104789205
113	0xbd94925f	-0.072544806
114	0x3d2cd069	0.042190943
115	0x3dbf3369	0.093359776
116	0x3d97483d	0.07386825
117	0xbd956218	-0.072941005
118	0x3d7188d9	0.0589684
119	0xbd4b6600	-0.04965782
120	0xba5f0c9c	-0.0008508654
121	0x3d2a3035	0.04154988
122	0x3e0da854	0.13833743
123	0x3e00413b	0.12524883
124	0xbd4dc37f	-0.050235268
125	0xbdf2dccf	-0.11858522
126	0xbda8cdc4	-0.08242372
127	0x3dc323b5	0.09528295
128	0x3db74d16	0.0895025
129	0x3d3c761c	0.046011075
130	0xbd4d8859	-0.05017886
131	0xbd943ecf	-0.07238542
132	0x3da4278b	0.08015355
133	0xbdf30a26	-0.1186717
134	0xbdb523ba	-0.08844705
135	0xbd1469a4	-0.03623356
136	0xbe0faf37	-0.14031683
137	0x3d483942	0.04888273
138	0x3c3e8c0e	0.011630071
139	0x3d81ab25	0.06331471
140	0xbd46d3de	-0.048541896
141	0x3db987d2	0.09059109
142	0x3c4c2179	0.012459152
143	0xbda7a68b	-0.081860624
144	0x3da6e139	0.081484266
145	0x3d9e8695	0.07740513
146	0x3d9faf28	0.0779708
147	0xbe018fcd	-0.12652512
148	0xbd6c2060	-0.057648063
149	0x3df72c15	0.12068955
150	0x3d3538f3	0.044243764
151	0xbdab6e6b	-0.0837067
152	0xbded99bb	-0.116015874
153	0x3dbd0378	0.09229177
154	0xbc24f130	-0.010067269
155	0x3dce07ea	0.10060103
156	0xbd0a5423	-0.033771645
157	0x3ca1845f	0.01971644
158	0xbc93fb24	-0.01806409
159	0x3da824b9	0.08210129
160	0xbcb35b73	-0.021894192
161	0xbdcf915d	-0.10135148
162	0xbdad72d1	-0.08469165
163	0x3da208dc	0.07911846
164	0xbcd07215	-0.025445024
165	0x3d959ffe	0.07305907
166	0x3d879693	0.06620517
167	0x3dbbd3cb	0.09171256
168	0xbc00cc7a	-0.007861251
169	0xbd2c040a	-0.04199604
170	0x3db36cf6	0.08761017
171	0xbe065350	-0.13117719
172	0xbd19f7b2	-0.037589736
173	0x3db34017	0.087524585
174	0x3de7e0d2	0.11322178
175	0x3bea2f61	0.0071467613
176	0xbd4215e6	-0.047384165
177	0xbd41a841	-0.0472796
178	0x3dd0caf4	0.1019496
179	0x3d418d90	0.047254145
180	0xbd792f14	-0.060835913
181	0xbe0fd99e	-0.14047858
182	0xbd8b2209	-0.06793601
183	0x3d647d8b	0.05578379
184	0x3ccb90a2	0.02484924
185	0x3d83ed80	0.06441784
186	0xbd25c9ed	-0.040475775
187	0x3cf1b925	0.02950723
188	0xbce0bba8	-0.027433231
189	0x3dd48032	0.10376014
190	0xbdb761d0	-0.08954203
191	0xbdce29d4	-0.10066572

fc_combined.2.bias f4 [3]
0	0x3dc5564b	0.096356
1	0xbdac4c27	-0.084129624
2	0x3d981d07	0.074274115
